models/tflite/rice_classifier_cnn_int8.tflite (tflite, 22024 bytes, 13 tensors)

tfl.pseudo_qconst1 i1 [5, 64]
71 98 19 -4 -36 -32 -119 -54
-26 -33 -19 25 60 75 -29 28
-99 71 -45 -25 -59 61 -19 8
-36 -45 -79 -64 -13 49 -86 -48
-49 -43 -7 104 -127 29 -73 -59
-81 -74 -3 -106 1 -4 -124 -69
24 -41 14 68 57 5 -69 -63
56 -103 -71 -41 43 34 -67 -107
-51 3 -127 -101 37 24 38 -104
11 -3 41 -76 -84 -72 63 -83
17 -106 -48 90 80 -115 -91 40
33 86 -43 97 -16 -77 31 16
-74 -11 85 -23 -47 63 20 15
99 71 -31 30 3 -26 -78 -41
-84 -45 -75 -57 -103 87 -10 62
-55 47 49 41 -23 13 -67 -33
19 -24 -26 -90 -51 94 -15 21
66 70 -84 -42 -59 24 -94 39
-28 25 -112 -86 -62 68 38 -77
84 -103 -23 -100 -60 -80 -51 67
53 -93 -96 -20 -13 70 56 88
3 -69 -66 -17 68 -19 -80 46
47 -97 -78 -12 -47 16 45 -14
7 -4 -117 78 -80 41 -35 -127
-65 -53 -99 37 -41 -55 29 -83
-48 -86 -60 64 26 -73 -75 -50
71 37 20 29 7 -90 -88 -78
-54 -17 106 -41 -49 59 127 -52
-63 -70 20 -19 96 5 -15 -96
-26 94 55 31 -2 -65 38 0
-107 56 55 67 -67 -62 -80 -94
-110 103 15 -54 60 -41 -55 70
00000000: 4762 13fc dce0 89ca e6df ed19 3c4b e31c
00000010: 9d47 d3e7 c53d ed08 dcd3 b1c0 f331 aad0
00000020: cfd5 f968 811d b7c5 afb6 fd96 01fc 84bb
00000030: 18d7 0e44 3905 bbc1 3899 b9d7 2b22 bd95
00000040: cd03 819b 2518 2698 0bfd 29b4 acb8 3fad
00000050: 1196 d05a 508d a528 2156 d561 f0b3 1f10
00000060: b6f5 55e9 d13f 140f 6347 e11e 03e6 b2d7
00000070: acd3 b5c7 9957 f63e c92f 3129 e90d bddf
00000080: 13e8 e6a6 cd5e f115 4246 acd6 c518 a227
00000090: e419 90aa c244 26b3 5499 e99c c4b0 cd43
000000a0: 35a3 a0ec f346 3858 03bb beef 44ed b02e
000000b0: 2f9f b2f4 d110 2df2 07fc 8b4e b029 dd81
000000c0: bfcb 9d25 d7c9 1dad d0aa c440 1ab7 b5ce
000000d0: 4725 141d 07a6 a8b2 caef 6ad7 cf3b 7fcc
000000e0: c1ba 14ed 6005 f1a0 e65e 371f febf 2600
000000f0: 9538 3743 bdc2 b0a2 9267 0fca 3cd7 c946

tfl.pseudo_qconst3 i1 [64, 64]
-53 -11 47 -25 12 63 -63 64
-67 3 -98 117 -119 -76 -47 14
-17 37 -59 -86 -50 -89 29 -36
-7 -105 25 -58 -83 4 -9 -10
9 -74 -72 -44 -59 -36 -76 -87
-25 -10 -127 -25 -104 -25 56 29
48 60 22 -112 -45 41 45 7
-17 76 -36 -36 -27 26 -60 51
-93 9 45 -53 -38 -29 -11 122
6 2 -83 -4 -48 -71 -33 23
-20 19 -57 -33 -23 -23 -21 -50
-77 -85 -5 -22 -31 61 76 41
73 -18 -61 -33 -4 13 88 -50
56 31 -127 6 -84 -10 18 -52
36 43 69 -60 -51 -7 -15 19
-41 34 -25 -43 -100 79 1 111
-99 31 -40 -60 -10 31 -50 -6
-57 -57 -66 105 -28 6 -32 -32
19 55 -76 -24 20 -80 5 -70
17 -83 107 36 -25 -2 -84 -36
-37 -81 -30 -25 -80 18 -23 -79
56 -15 -7 -6 -14 -2 127 24
70 90 -29 -40 -55 52 9 -33
-27 42 -83 -76 -26 1 -45 22
83 -100 -59 100 -26 20 -4 -92
88 -81 -55 -17 95 3 -2 62
-38 -67 -26 31 5 84 5 -16
32 61 6 20 -81 -88 -66 121
113 14 4 -23 -32 -91 46 -1
-17 29 105 -32 5 -54 13 53
63 117 63 -4 -127 -2 -32 -77
-9 -86 -74 47 69 66 -41 -72
00000000: cbf5 2fe7 0c3f c140 bd03 9e75 89b4 d10e
00000010: ef25 c5aa cea7 1ddc f997 19c6 ad04 f7f6
00000020: 09b6 b8d4 c5dc b4a9 e7f6 81e7 98e7 381d
00000030: 303c 1690 d329 2d07 ef4c dcdc e51a c433
00000040: a309 2dcb dae3 f57a 0602 adfc d0b9 df17
00000050: ec13 c7df e9e9 ebce b3ab fbea e13d 4c29
00000060: 49ee c3df fc0d 58ce 381f 8106 acf6 12cc
00000070: 242b 45c4 cdf9 f113 d722 e7d5 9c4f 016f
00000080: 9d1f d8c4 f61f cefa c7c7 be69 e406 e0e0
00000090: 1337 b4e8 14b0 05ba 11ad 6b24 e7fe acdc
000000a0: dbaf e2e7 b012 e9b1 38f1 f9fa f2fe 7f18
000000b0: 465a e3d8 c934 09df e52a adb4 e601 d316
000000c0: 539c c564 e614 fca4 58af c9ef 5f03 fe3e
000000d0: dabd e61f 0554 05f0 203d 0614 afa8 be79
000000e0: 710e 04e9 e0a5 2eff ef1d 69e0 05ca 0d35
000000f0: 3f75 3ffc 81fe e0b3 f7aa b62f 4542 d7b8

tfl.pseudo_qconst4 i1 [64] scale=0.022172622 zero_point=127
-1.8846729 -0.35476196 -0.48779768 -1.35253 -0.6208334 -0.13303573 -0.3104167 -3.9467268
-0.19955361 -0.15520835 -2.1950896 -2.70506 -1.286012 -3.6141374 -0.643006 -0.3769346
-0.73169655 -2.9489589 -1.4855657 -2.6385422 -1.7738098 -0.643006 -0.13303573 -0.643006
-2.815923 -3.3702385 -2.4168158 -5.654019 -0.6873513 -0.3769346 -0.3104167 -0.13303573
-4.9444947 -2.8824408 -2.2616074 -0.7760418 -3.1263397 -2.3724706 -0.22172622 -2.172917
-1.8846729 -0.46562508 -3.0819945 -0.3769346 -2.0398812 -0.55431557 -2.8824408 -3.7250006
-2.70506 -1.7294645 -0.08869049 -2.3724706 -0.22172622 -3.458929 -2.2172623 -1.175149
-1.2638395 -2.9046135 -0.66517866 -1.818155 -2.7494051 -0.17738098 -0.84255964 -3.281548
00000000: 2a6f 6942 6379 71cd 7678 1c05 45dc 626e
00000010: 5efa 3c08 2f62 7962 00e7 1280 606e 7179
00000020: a0fd 195c f214 751d 2a6a f46e 2366 fdd7
00000030: 0531 7b14 75e3 1b4a 46fc 612d 0377 59eb

tfl.pseudo_qconst5 i1 [64] scale=0.12519665 zero_point=-128
7.136209 16.40076 13.270845 4.632276 5.007866 24.162954 7.887389 13.771631
16.150368 31.424358 6.134636 7.7621922 5.8842425 8.763765 4.006293 20.532251
13.771631 8.763765 5.8842425 4.3818827 13.145648 5.3834558 30.047195 3.630703
5.3834558 7.511799 18.779497 11.518092 3.8810961 13.396042 20.281857 21.158234
15.649581 9.890535 4.8826694 7.136209 10.015732 9.514945 21.408627 9.139356
11.768485 10.015732 7.136209 11.643289 4.256686 4.006293 7.636996 7.0110126
6.510226 31.925146 31.299162 5.2582593 22.03461 10.641715 14.773205 24.788937
10.015732 19.155088 1.8779497 4.1314893 6.6354227 12.394468 31.173965 10.140928
00000000: b903 eaa5 a841 bfee 017b b1be afc6 a024
00000010: eec6 afa3 e9ab 709d abbc 16dc 9feb 2229
00000020: fdcf a7b9 d0cc 2bc9 ded0 b9dd a2a0 bdb8
00000030: b47f 7aaa 30d5 f646 d019 8fa1 b5e3 79d1

tfl.pseudo_qconst7 i1 [64, 1, 1, 32]
30 41 12 62 22 32 -53 46
-35 35 -35 127 -10 -52 90 18
0 30 1 72 43 -48 76 -27
-26 -14 44 1 -9 63 74 -5
-51 -43 8 -109 -48 96 -13 -33
55 -64 46 -57 1 -23 -127 -49
-45 17 1 55 3 53 -30 27
-41 88 -73 100 61 -14 -54 30
24 22 15 -6 17 5 64 -41
2 -17 -28 -70 43 -56 -22 66
36 -23 -35 -10 -3 -2 9 -36
-17 -127 -57 -31 -3 12 -3 -53
18 19 76 13 -59 -48 56 -7
-90 127 68 60 -55 25 22 75
28 10 -68 -41 98 7 -40 93
-27 97 114 27 2 78 27 27
2 89 -7 4 -60 45 34 63
-11 30 28 -10 25 -24 -19 -66
-26 101 -31 14 -16 31 -49 -43
-11 9 10 39 127 44 -51 22
54 -20 78 -65 -93 50 126 -58
99 8 -51 -88 89 -41 -119 -32
62 -92 -78 53 -24 -109 53 40
-127 32 -40 55 -8 75 10 -14
-26 -28 -42 -53 21 -41 -12 -10
15 -127 110 11 23 -68 -29 -3
-44 -10 -17 -8 20 48 -40 -96
25 57 9 77 -14 91 39 66
-79 38 -3 -114 -57 2 51 -80
-38 -115 17 -20 -1 55 47 89
26 34 -58 -8 7 34 33 40
-127 -127 -90 -66 -36 0 59 -21
00000000: 1e29 0c3e 1620 cb2e dd23 dd7f f6cc 5a12
00000010: 001e 0148 2bd0 4ce5 e6f2 2c01 f73f 4afb
00000020: cdd5 0893 d060 f3df 37c0 2ec7 01e9 81cf
00000030: d311 0137 0335 e21b d758 b764 3df2 ca1e
00000040: 1816 0ffa 1105 40d7 02ef e4ba 2bc8 ea42
00000050: 24e9 ddf6 fdfe 09dc ef81 c7e1 fd0c fdcb
00000060: 1213 4c0d c5d0 38f9 a67f 443c c919 164b
00000070: 1c0a bcd7 6207 d85d e561 721b 024e 1b1b
00000080: 0259 f904 c42d 223f f51e 1cf6 19e8 edbe
00000090: e665 e10e f01f cfd5 f509 0a27 7f2c cd16
000000a0: 36ec 4ebf a332 7ec6 6308 cda8 59d7 89e0
000000b0: 3ea4 b235 e893 3528 8120 d837 f84b 0af2
000000c0: e6e4 d6cb 15d7 f4f6 0f81 6e0b 17bc e3fd
000000d0: d4f6 eff8 1430 d8a0 1939 094d f25b 2742
000000e0: b126 fd8e c702 33b0 da8d 11ec ff37 2f59
000000f0: 1a22 c6f8 0722 2128 8181 a6be dc00 3beb

tfl.pseudo_qconst9 i1 [1, 3, 3, 32]
43 -74 12 -102 -112 63 -109 51
-10 127 65 -67 -12 -27 -15 -19
40 -37 32 -49 3 13 13 -107
69 69 23 -42 -1 -127 -71 101
78 -46 46 -8 5 -127 -118 -40
-33 61 -12 46 116 -62 -31 -127
-11 -8 -70 -9 -31 118 7 -56
29 -118 7 -63 -127 27 -127 27
43 72 56 102 -12 -85 -4 -127
127 -14 17 22 102 -77 -127 -30
122 -107 -24 39 -127 74 127 -79
127 127 45 7 -28 -100 -66 24
-127 -127 127 -56 -26 18 -73 70
-43 110 127 -127 43 -73 106 -42
99 8 -19 -109 73 50 -60 -127
-43 -98 75 -121 -109 -42 2 113
-8 -37 -12 -82 -93 69 -47 23
106 125 -38 52 74 -127 -5 -44
123 5 -18 -34 -2 16 18 -32
-115 -79 127 -76 -54 43 -112 -117
-37 -73 85 92 -88 73 8 -15
86 80 42 66 112 -25 -83 -68
127 -104 -124 12 -56 117 122 -85
-86 33 67 37 78 -11 -101 -107
-17 -98 110 -127 -68 -95 -86 -14
124 -24 34 -77 127 -39 101 -87
121 66 84 -127 42 96 28 20
34 105 39 76 -4 -10 -65 3
106 -64 -17 -72 -127 37 11 45
63 104 21 -42 69 -53 95 -15
41 -127 1 -46 21 -23 6 -32
-116 -77 84 127 37 -28 -2 41
00000000: 2bb6 0c9a 903f 9333 f67f 41bd f4e5 f1ed
00000010: 28db 20cf 030d 0d95 4545 17d6 ff81 b965
00000020: 4ed2 2ef8 0581 8ad8 df3d f42e 74c2 e181
00000030: f5f8 baf7 e176 07c8 1d8a 07c1 811b 811b
00000040: 2b48 3866 f4ab fc81 7ff2 1116 66b3 81e2
00000050: 7a95 e827 814a 7fb1 7f7f 2d07 e49c be18
00000060: 8181 7fc8 e612 b746 d56e 7f81 2bb7 6ad6
00000070: 6308 ed93 4932 c481 d59e 4b87 93d6 0271
00000080: f8db f4ae a345 d117 6a7d da34 4a81 fbd4
00000090: 7b05 eede fe10 12e0 8db1 7fb4 ca2b 908b
000000a0: dbb7 555c a849 08f1 5650 2a42 70e7 adbc
000000b0: 7f98 840c c875 7aab aa21 4325 4ef5 9b95
000000c0: ef9e 6e81 bca1 aaf2 7ce8 22b3 7fd9 65a9
000000d0: 7942 5481 2a60 1c14 2269 274c fcf6 bf03
000000e0: 6ac0 efb8 8125 0b2d 3f68 15d6 45cb 5ff1
000000f0: 2981 01d2 15e9 06e0 8cb3 547f 25e4 fe29

tfl.pseudo_qconst10 i1 [32] scale=0.010516501 zero_point=127
-1.0937161 -1.7772887 -0.07361551 -1.3671452 -0.37859404 -0.27342904 -0.28394553 -2.6817079
-0.13671452 -0.12619801 -0.525825 -0.49427554 -0.23136303 -0.5468581 -0.42066005 -0.37859404
-0.32601154 -1.9350362 -1.8719372 -0.17878051 -0.43117654 -0.32601154 -0.39962703 -0.30497852
-0.15774752 -0.31549504 -0.18929702 -2.3556962 -1.2514637 -0.18929702 -1.7772887 -2.2715642
00000000: 17d6 78fd 5b65 6480 7273 4d50 694b 575b
00000010: 60c7 cd6e 5660 5962 7061 6d9f 086d d6a7

tfl.pseudo_qconst11 i1 [32] scale=0.0944721 zero_point=-128
22.012 8.596961 22.673306 18.42206 7.0854077 21.445168 13.415039 22.86225
19.177837 15.021065 3.7788842 5.8572702 17.004978 3.684412 16.910507 11.7145405
13.981872 17.477339 21.350695 16.15473 5.3849096 8.596961 6.8019915 12.375846
11.903485 22.578833 16.2492 24.090385 8.313545 21.823055 13.131622 11.903485
00000000: 69db 7043 cb63 0e72 4b1f a8be 34a7 33fc
00000010: 1439 622b b9db c803 fe6f 2c7f d867 0bfe

tfl.pseudo_qconst13 i1 [32, 1, 1, 16]
42 -23 22 -21 -51 61 -127 -7
70 -95 113 -80 57 85 72 -51
10 -35 81 -18 -70 61 -80 25
104 10 -24 -21 97 32 127 29
-127 -61 -9 -91 115 24 -11 -21
-97 -85 -28 -71 89 -91 43 49
-28 101 -101 -4 127 -56 -24 43
-28 39 -100 101 69 65 -18 -97
-37 -30 9 -27 127 16 -26 -52
14 71 70 5 -113 -23 65 99
44 81 68 36 42 -50 91 -24
-6 -127 -36 9 -66 -3 37 -108
-38 64 -112 20 -68 -107 -75 -127
-48 103 -11 -112 23 1 49 -11
-103 -54 59 5 2 -3 -40 39
-96 -21 -74 -110 95 -10 127 -35
102 23 62 75 -3 16 127 -38
108 -99 -16 83 36 -31 31 25
5 1 -30 -48 -49 58 -31 66
3 26 95 -3 127 76 -53 77
-47 18 127 64 -13 -19 66 -9
-8 13 -17 41 74 27 -58 -3
127 123 26 -52 -22 72 83 -43
113 106 67 30 -48 -4 -81 26
57 -127 78 86 -52 -39 -98 -109
34 25 59 85 -22 104 52 -18
-124 19 114 -54 -59 66 -37 -127
84 86 -59 -10 122 -31 18 78
55 -36 2 -85 55 -13 -73 125
30 83 14 -54 22 -54 -127 -92
127 -26 -32 -95 38 -35 -105 -34
-27 63 39 79 65 72 -63 36
00000000: 2ae9 16eb cd3d 81f9 46a1 71b0 3955 48cd
00000010: 0add 51ee ba3d b019 680a e8eb 6120 7f1d
00000020: 81c3 f7a5 7318 f5eb 9fab e4b9 59a5 2b31
00000030: e465 9bfc 7fc8 e82b e427 9c65 4541 ee9f
00000040: dbe2 09e5 7f10 e6cc 0e47 4605 8fe9 4163
00000050: 2c51 4424 2ace 5be8 fa81 dc09 befd 2594
00000060: da40 9014 bc95 b581 d067 f590 1701 31f5
00000070: 99ca 3b05 02fd d827 a0eb b692 5ff6 7fdd
00000080: 6617 3e4b fd10 7fda 6c9d f053 24e1 1f19
00000090: 0501 e2d0 cf3a e142 031a 5ffd 7f4c cb4d
000000a0: d112 7f40 f3ed 42f7 f80d ef29 4a1b c6fd
000000b0: 7f7b 1acc ea48 53d5 716a 431e d0fc af1a
000000c0: 3981 4e56 ccd9 9e93 2219 3b55 ea68 34ee
000000d0: 8413 72ca c542 db81 5456 c5f6 7ae1 124e
000000e0: 37dc 02ab 37f3 b77d 1e53 0eca 16ca 81a4
000000f0: 7fe6 e0a1 26dd 97de e53f 274f 4148 c124

tfl.pseudo_qconst15 i1 [1, 3, 3, 16]
-4 106 13 6 -24 78 71 -35
-31 118 35 72 91 -1 -87 65
-31 61 -14 -84 23 -55 1 -33
44 -52 -95 42 72 103 -82 58
48 127 127 -82 -127 94 34 -100
127 2 66 -5 53 26 -62 -10
-84 -7 19 42 32 37 127 13
62 42 -112 -127 -11 32 -14 60
45 30 90 -73 12 70 -65 -127
-12 105 -60 89 -57 114 -79 -12
80 18 -25 -75 55 41 52 -72
0 64 72 -127 16 3 -125 -10
-69 -13 57 -127 -26 -127 -57 -9
-90 97 127 7 43 -41 9 -19
68 10 70 -73 78 -50 -46 -78
-59 127 35 -94 -127 98 -61 -47
-127 75 16 -49 -23 43 -44 -124
-66 107 -67 -58 -38 -127 -127 -127
00000000: fc6a 0d06 e84e 47dd e176 2348 5bff a941
00000010: e13d f2ac 17c9 01df 2ccc a12a 4867 ae3a
00000020: 307f 7fae 815e 229c 7f02 42fb 351a c2f6
00000030: acf9 132a 2025 7f0d 3e2a 9081 f520 f23c
00000040: 2d1e 5ab7 0c46 bf81 f469 c459 c772 b1f4
00000050: 5012 e7b5 3729 34b8 0040 4881 1003 83f6
00000060: bbf3 3981 e681 c7f7 a661 7f07 2bd7 09ed
00000070: 440a 46b7 4ece d2b2 c57f 23a2 8162 c3d1
00000080: 814b 10cf e92b d484 be6b bdc6 da81 8181

tfl.pseudo_qconst16 i1 [16] scale=0.010162307 zero_point=126
0.010162307 -0.33535612 -0.45730382 -0.081298456 -2.5812259 -1.1788276 -0.020324614 -0.4166546
-0.16259691 -0.77233535 -0.99590605 -0.010162307 -0.5894138 -0.020324614 -0.19308384 -0.8231469
00000000: 7f5d 5176 800a 7c55 6e32 1c7d 447c 6b2d

tfl.pseudo_qconst17 i1 [16] scale=0.12560305 zero_point=-128
30.89835 20.850107 2.637664 27.255861 20.5989 19.217266 31.27516 11.93229
23.613373 17.835632 21.226915 29.64232 23.613373 32.028778 26.879053 12.685908
00000000: 7626 9559 2419 79df 3c0e 296c 3c7f 56e5

tfl.pseudo_qconst19 i1 [16, 3, 3, 3]
53 -21 20 9 -53 -56 -21 40
27 86 -78 1 -91 -89 127 -52
-35 61 -55 -63 70 -61 -32 13
21 4 17 2 -90 76 -12 -89
65 59 15 94 34 36 -19 -31
67 49 -61 -127 -34 100 -82 45
119 -102 -15 4 19 -61 -16 31
52 -77 70 56 88 70 59 52
100 127 -74 61 -66 8 30 -56
7 12 112 69 -35 -52 13 112
109 92 -9 104 38 1 5 28
-14 -98 46 -18 14 -26 -70 -65
-41 -57 -100 107 -52 31 -127 90
3 -117 -107 44 8 -28 43 -86
-29 -11 -118 15 -2 67 -35 4
-4 -53 7 -61 72 -127 39 106
14 53 109 25 37 -45 27 44
41 2 127 -22 -75 55 -64 79
-77 -72 -65 -44 -52 -45 80 -62
105 27 -64 -18 11 -1 -62 -90
111 54 26 47 18 37 -20 -31
-41 -80 27 -99 -23 106 -127 -48
113 -61 -22 -25 -52 37 -56 81
-2 12 -107 -38 -90 -67 106 94
-24 106 11 66 90 99 -1 40
72 40 -31 60 -1 -63 -48 -26
-35 -63 32 -112 1 -127 67 -83
14 28 8 -54 103 -55 -117 -3
-94 -23 71 127 -88 8 -61 0
-49 47 54 46 100 100 -103 33
-111 -100 69 98 127 8 -10 31
15 124 -112 -78 24 38 -39 76
00000000: 35eb 1409 cbc8 eb28 1b56 b201 a5a7 7fcc
00000010: dd3d c9c1 46c3 e00d 1504 1102 a64c f4a7
00000020: 413b 0f5e 2224 ede1 4331 c381 de64 ae2d
00000030: 779a f104 13c3 f01f 34b3 4638 5846 3b34
00000040: 647f b63d be08 1ec8 070c 7045 ddcc 0d70
00000050: 6d5c f768 2601 051c f29e 2eee 0ee6 babf
00000060: d7c7 9c6b cc1f 815a 038b 952c 08e4 2baa
00000070: e3f5 8a0f fe43 dd04 fccb 07c3 4881 276a
00000080: 0e35 6d19 25d3 1b2c 2902 7fea b537 c04f
00000090: b3b8 bfd4 ccd3 50c2 691b c0ee 0bff c2a6
000000a0: 6f36 1a2f 1225 ece1 d7b0 1b9d e96a 81d0
000000b0: 71c3 eae7 cc25 c851 fe0c 95da a6bd 6a5e
000000c0: e86a 0b42 5a63 ff28 4828 e13c ffc1 d0e6
000000d0: ddc1 2090 0181 43ad 0e1c 08ca 67c9 8bfd
000000e0: a2e9 477f a808 c300 cf2f 362e 6464 9921
000000f0: 919c 4562 7f08 f61f 0f7c 90b2 1826 d94c
