app/app/src/main/assets/rice_classifier.tflite (tflite, 39420 bytes, 20 tensors)

arith.constant f4 [64]
0.066456944 0.06094365 -0.04987947 -0.0283838 0.09951647 -0.032269903 0.100578874 0.026445858
-0.0039460557 0.01950068 0.08189047 0.04668895 0.012219579 0.060526647 0.11533329 -0.045961477
-0.01921096 0.0571804 -0.0028127122 0.062379226 0.05358346 -0.0698711 -0.041600224 0.1015266
0.096444 0.1456346 -0.005158901 0.18634975 0.055759188 0.054263655 0.017063493 0.029856903
0.0698334 0.124905586 0.061940312 0.02197064 0.043465126 0.05038845 -0.030217899 0.12019191
0.020204185 -0.12283467 0.1381638 0.07675293 0.12044358 0.060709786 0.024274409 0.10809233
0.034237675 0.015121651 0.039577253 0.059917025 0.020552302 0.03145613 -0.0031224813 0.004915489
0.022890845 0.032097317 0.12513891 0.09251827 0.1453973 0.07173765 0.020769415 0.07609984
00000000: 941a 883d 0ca0 793d 6a4e 4cbd 2585 e8bc
00000010: 4bcf cb3d 722d 04bd 4cfc cd3d fca4 d83c
00000020: ea4d 81bb e4bf 9f3c 31b6 a73d ea3c 3f3d
00000030: a134 483c caea 773d dc33 ec3d 1a42 3cbd
00000040: 4e60 9dbc ff35 6a3d 7b55 38bb 5c81 7f3d
00000050: 557a 5b3d 9418 8fbd ff64 2abd 2eed cf3d
00000060: 6f84 c53d 3d21 153e 000c a9bb 78d2 3e3e
00000070: bf63 643d 9143 5e3d bdc8 8b3c 7796 f43c
00000080: d004 8f3d 80ce ff3d 20b5 7d3d c6fb b33c
00000090: 7d08 323d 1f64 4e3d 878b f7bc 2d27 f63d
000000a0: 3f83 a53c be90 fbbd d07a 0d3e a430 9d3d
000000b0: 20ab f63d d3aa 783d 20db c63c 835f dd3d
000000c0: ce3c 0c3d cdc0 773c c21b 223d 8e6b 753d
000000d0: 4d5d a83c 25d8 003d 8ba2 4cbb 1c12 a13b
000000e0: 9585 bb3c 7a78 033d 6a24 003e 387a bd3d
000000f0: 08e3 143e 30eb 923d 9f24 aa3c 3cda 9b3d

arith.constant1 f4 [32]
0.025151972 0.054998334 -0.010392507 -0.004516907 0.008098314 0.10277838 0.07569448 0.026492087
-0.031325452 0.07003733 0.0102482885 0.036785003 0.058419693 0.12797211 0.0014487398 0.08027418
-0.030721625 0.08909012 0.058259904 0.057308245 0.00357374 0.03724505 -0.025812186 0.021039749
-0.03437771 -0.04054612 0.069489375 0.013293961 -8.920254e-06 0.11562198 0.0693044 0.007231994
00000000: 820b ce3c ef45 613d 5545 2abc 9002 94bb
00000010: caae 043c 797d d23d b505 9b3d ef05 d93c
00000020: 1e4f 00bd bb6f 8f3d 70e8 273c dfab 163d
00000030: 7d49 6f3d 1f0b 033e a4e3 bd3a ca66 a43d
00000040: ebab fbbc e174 b63d f0a1 6e3d 0dbc 6a3d
00000050: 6835 6a3b 448e 183d 1474 d3bc 8d5b ac3c
00000060: a4cf 0cbd b013 26bd 7250 8e3d eace 593c
00000070: 33a8 15b7 37cb ec3d 77ef 8d3d 5dfa ec3b

arith.constant2 f4 [32]
0.023515915 0.052832544 -0.038024757 0.051102486 0.01592736 -0.05346109 -0.013654703 0.019944495
-0.05299543 -0.04211757 0.06589681 -0.14603335 -0.053887695 -0.05010485 -0.14574488 0.052282035
0.015041192 0.033418182 -0.018419715 -0.004339715 -0.045842435 0.07280013 -0.13029383 0.016460704
-0.09993145 -0.10229535 -0.123014316 0.047916036 0.02722662 -0.016008962 -0.024631277 0.046179235
00000000: 73a4 c03c f066 583d d9bf 1bbd d750 513d
00000010: 187a 823c 04fa 5abd fab7 5fbc a362 a33c
00000020: bc11 59bd 7983 2cbd e8f4 863d c489 15be
00000030: 58b9 5cbd be3a 4dbd 253e 15be b025 563d
00000040: 556f 763c 81e1 083d f1e4 96bc 2b34 8ebb
00000050: 47c5 3bbd 3c18 953d bf6b 05be 99d8 863c
00000060: dca8 ccbd 3980 d1bd eeee fbbd 9b43 443d
00000070: 5c0a df3c 3a25 83bc 88c7 c9bc 7026 3d3d

arith.constant3 f4 [16]
-0.008797028 -0.052781302 -0.041929707 0.038738485 -0.03299371 0.02944526 -0.006956897 0.0670897
-0.027462987 0.0364371 0.00054631295 0.00878974 0.005086891 -0.009949791 -0.012267745 -0.033740804
00000000: 6921 10bc 3531 58bd 7cbe 2bbd 3fac 1e3d
00000010: 6a24 07bd 3037 f13c aff6 e3bb 5366 893d
00000020: 0ffa e0bc 123f 153d 7136 0f3a d702 103c
00000030: efaf a63b 7304 23bc a7fe 48bc cc33 0abd

arith.constant4 f4 [64, 1, 1, 32]
0.106756754 0.14425075 0.042415008 0.21867001 0.07612875 0.11359947 -0.18622752 0.16251557
-0.12429998 0.124252334 -0.12409173 0.44791678 -0.034325335 -0.18380582 0.31671536 0.06457439
0.001729449 0.10426022 0.0021600015 0.254834 0.15054113 -0.16948433 0.2687139 -0.09652702
-0.09164132 -0.05097878 0.15342309 0.0033698103 -0.030400047 0.22045442 0.25957668 -0.018137366
-0.14880641 -0.12528975 0.023009725 -0.31776634 -0.14087589 0.27987558 -0.03796292 -0.0957914
0.1617489 -0.18803036 0.13372694 -0.16475624 0.002687492 -0.06708629 -0.3702897 -0.14369932
-0.130965 0.049918517 0.0038953891 0.15896755 0.009955825 0.15367375 -0.08856456 0.07898777
-0.11832682 0.25598752 -0.21422277 0.29118398 0.17746212 -0.04007154 -0.15833329 0.08811245
0.11211137 0.10409704 0.070167236 -0.025654186 0.076949134 0.023238711 0.29589602 -0.19151303
0.008649739 -0.0778253 -0.1303107 -0.3250719 0.19670159 -0.25939062 -0.09985218 0.30584633
0.16868809 -0.10652604 -0.15998195 -0.0445914 -0.011773609 -0.01039695 0.039563175 -0.1656566
-0.07659732 -0.5875904 -0.26437935 -0.1453534 -0.01453941 0.056674667 -0.013943654 -0.24363358
0.048102744 0.04991117 0.20133506 0.035369407 -0.15681882 -0.12906322 0.14891873 -0.01839609
-0.23965332 0.33832243 0.18225656 0.15984555 -0.14589992 0.06708329 0.057448477 0.20072168
0.07481195 0.026358476 -0.18090321 -0.10836941 0.262383 0.017498454 -0.10529055 0.24720947
-0.07191486 0.25733843 0.3028382 0.070660174 0.0050114403 0.20877478 0.07065296 0.07247207
0.0061815633 0.29612732 -0.02478145 0.014714045 -0.1997651 0.14827514 0.11151605 0.20910831
-0.036379874 0.100559875 0.091649376 -0.033745836 0.083325505 -0.07814783 -0.06329894 -0.22094798
-0.086950146 0.33500263 -0.10239698 0.047729243 -0.053586885 0.10155623 -0.16161662 -0.14249252
-0.03524283 0.029152462 0.03422227 0.12835181 0.42228112 0.14726588 -0.17050806 0.07348501
0.13166109 -0.048756532 0.18882914 -0.15726912 -0.22739607 0.12207344 0.30633104 -0.1409058
0.24153025 0.018523755 -0.12472392 -0.2141073 0.21605167 -0.099640265 -0.28932807 -0.07713284
0.15181816 -0.22489606 -0.18886305 0.12883458 -0.05857404 -0.265231 0.12933552 0.09778538
-0.30933928 0.07908456 -0.0978517 0.13354474 -0.020041572 0.18343799 0.025378592 -0.035159662
-0.07368541 -0.07944433 -0.11680854 -0.14820088 0.06030858 -0.11444588 -0.03246509 -0.029436812
0.041039094 -0.3571812 0.30829784 0.03124249 0.064421184 -0.19127756 -0.08222953 -0.009551563
-0.12381281 -0.027872538 -0.04719375 -0.022535967 0.055735722 0.13508677 -0.111983426 -0.26931956
0.071469985 0.15978394 0.024128215 0.21549748 -0.039294247 0.25586805 0.1106504 0.18461606
-0.25828773 0.12319887 -0.011258994 -0.37208027 -0.18702623 0.0057249577 0.16623454 -0.2606795
-0.122341715 -0.37606272 0.05528874 -0.06592924 -0.0026637507 0.18054897 0.15466097 0.2913839
0.084233984 0.10959495 -0.18756954 -0.026216306 0.021420786 0.11163363 0.10670439 0.12903516
-0.41252264 -0.41408917 -0.2931153 -0.21572186 -0.11678747 -0.001217918 0.19108802 -0.06832055
00000000: 49a3 da3d 78b6 133e 5cbb 2d3d 08eb 5f3e
00000010: 64e9 9b3d d7a6 e83d 6db2 3ebe 7b6a 263e
00000020: fd90 febd 0278 fe3d ce23 febd 5955 e53e
00000030: b998 0cbd 9837 3cbe 8428 a23e 943f 843d
00000040: aeae e23a 6286 d53d d08e 0d3b 9a79 823e
00000050: 7427 1a3e 4d8d 2dbe de94 893e f5af c5bd
00000060: 72ae bbbd 20cf 50bd f11a 1d3e 09d8 5c3b
00000070: 8509 f9bc cebe 613e 3ce7 843e d094 94bc
00000080: b560 18be f54b 00be e47e bc3c 45b2 a2be
00000090: c541 10be da4b 8f3e 027f 1bbd 482e c4bd
000000a0: 81a1 253e 088b 40be b7ef 083e dcb5 28be
000000b0: a220 303b 8964 89bd 9d96 bdbe ea25 13be
000000c0: b01b 06be 5c77 4c3d c949 7f3b 64c8 223e
000000d0: c21d 233c a75c 1d3e 5661 b5bd 57c4 a13d
000000e0: 5555 f2bd cc10 833e 375d 5bbe 1116 953e
000000f0: a1b8 353e 0e22 24bd 1f22 22be 4d74 b43d
00000100: a59a e53d d430 d53d d7b3 8f3d ba28 d2bc
00000110: 8297 9d3d 1c5f be3c af7f 973e fe1b 44be
00000120: a3b7 0d3c df62 9fbd 2b70 05be d36f a6be
00000130: 246c 493e d9ce 84be 4d7f ccbd e497 9c3e
00000140: 92bc 2c3e 532a dabd 4fd2 23be 79a5 36bd
00000150: 18e6 40bc f857 2abc ff0c 223d e2a1 29be
00000160: 0edf 9cbd 536c 16bf bb5c 87be 86d7 14be
00000170: b536 6ebc b223 683d ec73 64bc 157b 79be
00000180: 6207 453d a86f 4c3d c72a 4e3e 83df 103d
00000190: 1d95 20be 2629 04be 277e 183e 66b3 96bc
000001a0: ae67 75be 9938 ad3e 77a1 3a3e 8dae 233e
000001b0: ca66 15be f762 893d 184f 6b3d fc89 4d3e
000001c0: 0237 993d bbed d73c b13e 39be c8f0 ddbd
000001d0: 1157 863e eb58 8f3c 92a2 d7bd 7b24 7d3e
000001e0: 1948 93bd ddc1 833e 9c0d 9b3e 48b6 903d
000001f0: 0237 a43b 0ec9 553e 80b2 903d 3d6c 943d
00000200: b68e ca3b 009e 973e 7802 cbbc 2e13 713c
00000210: 398f 4cbe 70d5 173e 8762 e43d 7d20 563e
00000220: 1003 15bd 56f2 cd3d abb2 bb3d 1339 0abd
00000230: 90a6 aa3d f80b a0bd e0a2 81bd 3040 62be
00000240: eb12 b2bd 7785 ab3e 82b5 d1bd bd7f 433d
00000250: ec7d 5bbd b6fc cf3d d47e 25be 8fe9 11be
00000260: c95a 10bd 25d1 ee3c a72c 0c3d a86e 033e
00000270: 3b35 d83e decc 163e aa99 2ebe 4f7f 963d
00000280: 2ad2 063e eeb4 47bd 6d5c 413e 280b 21be
00000290: 84da 68be a401 fa3d 6cd7 9c3e 9c49 10be
000002a0: b553 773e 21bf 973c 416f ffbd f23e 5bbe
000002b0: a63c 5d3e 3210 ccbd cf22 94be d3f7 9dbd
000002c0: 3876 1b3e 274b 66be 5165 41be 36ed 033e
000002d0: 55eb 6fbd 5ccc 87be 8870 043e b443 c83d
000002e0: b861 9ebe 16f7 a13d 7966 c8bd f4bf 083e
000002f0: 392e a4bc 2bd7 3b3e c4e6 cf3c 9403 10bd
00000300: 60e8 96bd b5b3 a2bd 5139 efbd f9c1 17be
00000310: 2106 773d 9a62 eabd 1dfa 04bd 7825 f1bc
00000320: 9c18 283d 74e0 b6be 37d9 9d3e 40f0 ff3c
00000330: 41ef 833d 44de 43be f567 a8bd 297e 1cbc
00000340: 9291 fdbd f354 e4bc 3c4e 41bd 599d b8bc
00000350: 244b 643d 3054 0a3e 9157 e5bd 41e4 89be
00000360: db5e 923d 679e 233e 89a8 c53c 5fab 5c3e
00000370: 01f3 20bd 2301 833e ad9c e23d fe0b 3d3e
00000380: 4a3e 84be b04f fc3d a577 38bc 4e81 bebe
00000390: ce83 3fbe 6d98 bb3b 6339 2a3e c977 85be
000003a0: 4b8e fabd 4b8b c0be 7276 623d e905 87bd
000003b0: 5292 2ebb d4e1 383e 725f 1e3e 4530 953e
000003c0: de82 ac3d 5173 e03d 3b12 40be 94c3 d6bc
000003d0: a57a af3c 2ca0 e43d d587 da3d cb21 043e
000003e0: 2b36 d3be 7f03 d4be 3513 96be 31e6 5cbe
000003f0: 452e efbd 8ca2 9fba 94ac 433e a5eb 8bbd

arith.constant5 f4 [1, 3, 3, 32]
0.06972366 -0.095074296 0.013399809 -0.115657285 -0.15716383 0.093469806 -0.132105 0.076589115
-0.011050218 0.18617369 0.07458371 -0.10909668 -0.014602284 -0.043570187 -0.02076975 -0.0327549
0.04890577 -0.045689374 0.045902107 -0.0666941 0.005825545 0.01798761 0.015683664 -0.16724584
0.07449201 0.06756526 0.028954769 -0.054178968 -0.0010310194 -0.23035696 -0.11301957 0.092883095
0.12623209 -0.059185028 0.051730927 -0.00961629 0.0063482244 -0.18810627 -0.1433224 -0.058826678
-0.037006095 0.09006537 -0.013747472 0.075329445 0.13758698 -0.09918874 -0.04260602 -0.21798266
-0.013724549 -0.00984327 -0.101654425 -0.0126857925 -0.058255076 0.16614035 0.008658205 -0.08726811
0.031333227 -0.11643058 0.008769444 -0.08252966 -0.10835509 0.048898056 -0.20161727 0.024463166
0.06901008 0.09243515 0.062200543 0.11602146 -0.017175937 -0.12632152 -0.0048198653 -0.1890582
0.14154044 -0.021175254 0.01973973 0.035805713 0.12170959 -0.12207697 -0.1769716 -0.051341604
0.15004523 -0.13118818 -0.03445749 0.0531329 -0.23818249 0.10393817 0.15127325 -0.12384882
0.1375978 0.12518188 0.0570712 0.008936112 -0.023701819 -0.18062693 -0.10436264 0.021649778
-0.20480596 -0.16208662 0.14189106 -0.06336589 -0.036647853 0.02647064 -0.088405125 0.10401851
-0.04759573 0.16101143 0.14554136 -0.20623505 0.051147826 -0.11567101 0.14760664 -0.07151487
0.12113584 0.009504302 -0.028180985 -0.14883661 0.13766393 0.0700532 -0.07136361 -0.19836569
-0.0469117 -0.0965988 0.09472051 -0.15783104 -0.0934082 -0.07566091 0.003412185 0.103882164
-0.012291022 -0.047746748 -0.013411502 -0.09334224 -0.13123918 0.102495044 -0.056870017 0.0343216
0.11792928 0.1826522 -0.043074887 0.08439993 0.088141724 -0.2019528 -0.007424817 -0.07481414
0.15068959 0.0064377594 -0.026018456 -0.04635726 -0.0040636105 0.023127133 0.02111006 -0.049889326
-0.12471504 -0.07809694 0.16033487 -0.098574415 -0.04641352 0.07784469 -0.17719741 -0.10704501
-0.05960366 -0.09337064 0.094669566 0.10500262 -0.12389411 0.107717395 0.009970509 -0.02168574
0.095524505 0.11731059 0.04762058 0.10758018 0.13365099 -0.039612327 -0.11582059 -0.11614718
0.15585051 -0.12845811 -0.18005975 0.016585633 -0.10499638 0.16481619 0.1454265 -0.13273022
-0.09280153 0.03244373 0.085028164 0.048740774 0.06651793 -0.02026495 -0.15962152 -0.09753648
-0.027049381 -0.12545489 0.12250261 -0.14443046 -0.095025055 -0.14051765 -0.10428762 -0.02082969
0.13840418 -0.034979872 0.038623918 -0.12467626 0.15100464 -0.06133393 0.14057574 -0.14919932
0.1479445 0.08073897 0.12144476 -0.17332716 0.0788622 0.13543007 0.0338294 0.032008898
0.036392286 0.10300445 0.048854478 0.09939764 -0.0033800828 -0.017249547 -0.10274338 0.0023819958
0.17054532 -0.08224358 -0.019260677 -0.08150494 -0.17826256 0.054280557 0.013877375 0.06702353
0.07046671 0.15213767 0.02408955 -0.0685563 0.08217376 -0.08444783 0.13247034 -0.026009146
0.050136834 -0.15634085 0.0008769133 -0.062178437 0.038481534 -0.03267042 0.0070617045 -0.04956667
-0.12592177 -0.0762419 0.10638788 0.16542478 0.03168369 -0.051589064 -0.0039570285 0.037923183
00000000: 47cb 8e3d 50b6 c2bd df8a 5b3c badd ecbd
00000010: 8eef 20be 196d bf3d 8846 07be c1da 9c3d
00000020: f90b 35bc 51a4 3e3e 58bf 983d 156e dfbd
00000030: 6b3e 6fbc a776 32bd 5325 aabc 012a 06bd
00000040: 6b51 483d c824 3bbd d903 3c3d eb96 88bd
00000050: 37e4 be3b c15a 933c 077b 803c 7e42 2bbe
00000060: 448f 983d a85f 8a3d 8d32 ed3c c4ea 5dbd
00000070: 4523 87ba b2e2 6bbe ce76 e7bd 7e39 be3d
00000080: fc42 013e 006c 72bd cfe3 533d a58d 1dbc
00000090: c404 d03b ee9e 40be 1bc3 12be 3ef4 70bd
000000a0: b493 17bd 3174 b83d 143d 61bc 5346 9a3d
000000b0: 9ae3 0c3e 7723 cbbd a683 2ebd d936 5fbe
000000c0: eedc 60bc ab45 21bc 3230 d0bd 12d8 4fbc
000000d0: e09c 6ebd b220 2a3e 25db 0d3c 9fb9 b2bd
000000e0: 4557 003d 2873 eebd b7ad 0f3c 4f05 a9bd
000000f0: 46e9 ddbd 5449 483d c274 4ebe fa66 c83c
00000100: 2855 8d3d a44e bd3d ffc5 7e3d a99c ed3d
00000110: 8db4 8cbc 6e5a 01be f6ef 9dbb 7998 41be
00000120: faef 103e ba77 adbc 37b5 a13c 03a9 123d
00000130: e142 f93d 7e03 fabd 0b38 35be 934b 52bd
00000140: 75a5 193e 3256 06be 4c23 0dbd e2a1 593d
00000150: 1ce6 73be 89dd d43d 60e7 1a3e 73a4 fdbd
00000160: 70e6 0c3e ae2f 003e 7ec3 693d c568 123c
00000170: 512a c2bc 44f6 38be 14bc d5bd e05a b13c
00000180: a7b8 51be 09fa 25be e44b 113e fac5 81bd
00000190: 0f1c 16bd f5d8 d83c bf0d b5bd a807 d53d
000001a0: bdf3 42bd 2ee0 243e cb08 153e 482f 53be
000001b0: 6280 513d ece4 ecbd 3226 173e 6376 92bd
000001c0: 1116 f83d efb7 1b3c cfdb e6bc a068 18be
000001d0: c6f7 0c3e 0d78 8f3d 1627 92bd 6020 4bbe
000001e0: 7c26 40bd 97d5 c5bd d4fc c13d 769e 21be
000001f0: cc4c bfbd 1bf4 9abd f79e 5f3b 2cc0 d43d
00000200: 4860 49bc 1892 43bd ebbb 5bbc 372a bfbd
00000210: 9063 06be ece8 d13d 89f0 68bd ce94 0c3d
00000220: e884 f13d 2e09 3b3e 4b6f 30bd dfd9 ac3d
00000230: a683 b43d b7cc 4ebe e14b f3bb 2838 99bd
00000240: 5f4e 1a3e d7f3 d23b a824 d5bc 1ce1 3dbd
00000250: 0928 85bb 1d75 bd3c 01ef ac3c c058 4cbd
00000260: 996a ffbd 4af1 9fbd d32e 243e 62e1 c9bd
00000270: 1a1c 3ebd 096d 9f3d 3d73 35be 6a3a dbbd
00000280: f822 74bd 1b39 bfbd 1ee2 c13d 9d0b d73d
00000290: 32bc fdbd f09a dc3d 595b 233c 4ba6 b1bc
000002a0: 5aa2 c33d 8940 f03d cc0d 433d ff52 dc3d
000002b0: cedb 083e 8940 22bd 5833 edbd 93de edbd
000002c0: 4797 1f3e 868a 03be 9561 38be 98de 873c
000002d0: 5808 d7bd 93c5 283e afea 143e 6eea 07be
000002e0: bb0e bebd b7e3 043d 3f23 ae3d 68a4 473d
000002f0: 8d3a 883d ae02 a6bc d373 23be 35c1 c7bd
00000300: aa96 ddbc 3f77 00be a6e2 fa3d 94e5 13be
00000310: 7f9c c2bd dce3 0fbe bf94 d5bd 07a3 aabc
00000320: d3b9 0d3e 0e47 0fbd 1d34 1e3d 4456 ffbd
00000330: f6a0 1a3e 4939 7bbd 16f3 0f3e b5c7 18be
00000340: c37e 173e 795a a53d 08b8 f83d ad7c 31be
00000350: 8182 a13d 2eae 0a3e b290 0a3d c31b 033d
00000360: 1410 153d fff3 d23d a21b 483d fd90 cb3d
00000370: 6184 5dbb ec4e 8dbc 1f6b d2bd 421b 1c3b
00000380: 6fa3 2e3e 526f a8bd 91c8 9dbc 10ec a6bd
00000390: 768a 36be 4a55 5e3d ee5d 633c a243 893d
000003a0: da50 903d fac9 1b3e 7357 c53c 3f67 8cbd
000003b0: b74a a83d fcf2 acbd 4ea6 073e 2211 d5bc
000003c0: 485c 4d3d d117 20be a8e0 653a d1ae 7ebd
000003d0: d09e 1d3d 6bd1 05bd df65 e73b 6c06 4bbd
000003e0: a3f1 00be b724 9cbd e4e1 d93d 1d65 293e
000003f0: c2c6 013d 0e4f 53bd f6a9 81bb 5755 1b3d

arith.constant6 f4 [32, 1, 1, 16]
0.114806 -0.06278525 0.059279367 -0.0577267 -0.14146176 0.16759695 -0.3492868 -0.019914676
0.19217831 -0.26061952 0.31023467 -0.22110051 0.15640542 0.23456956 0.19716014 -0.14149457
0.02950488 -0.101623714 0.23834401 -0.052340176 -0.20736659 0.18080382 -0.23539574 0.07222215
0.30688995 0.02801324 -0.07056345 -0.060926184 0.2854839 0.09364489 0.3738796 0.085264415
-0.32052448 -0.1540173 -0.022581683 -0.2301917 0.2893813 0.060535934 -0.02798279 -0.05266636
-0.24569651 -0.21354076 -0.071855225 -0.18008032 0.2249167 -0.2284861 0.10752211 0.12242642
-0.058393676 0.20849466 -0.2082528 -0.009021032 0.2611668 -0.11462929 -0.049325448 0.08908931
-0.056725647 0.08034947 -0.20530884 0.20840831 0.14130336 0.13409697 -0.037222333 -0.19936176
-0.099480554 -0.08266673 0.024885032 -0.07236405 0.3446921 0.043708738 -0.0706902 -0.14186369
0.039094582 0.19382213 0.1892342 0.013242169 -0.3067443 -0.06159169 0.17602663 0.26746312
0.15019232 0.27583364 0.23194344 0.12338544 0.1449867 -0.17081344 0.31254616 -0.08166212
-0.019993134 -0.43474433 -0.1236765 0.03180395 -0.22557308 -0.01057688 0.12782636 -0.3710858
-0.111367024 0.18578564 -0.32527086 0.057918776 -0.19674297 -0.3100572 -0.21748546 -0.3687429
-0.13958572 0.3000643 -0.032465603 -0.32458025 0.065914765 0.002763044 0.14342158 -0.03215525
-0.25419632 -0.13311723 0.14617707 0.0122412285 0.0051203845 -0.0076691243 -0.09850769 0.09732448
-0.23589215 -0.051124223 -0.18159394 -0.27210405 0.23499072 -0.024101043 0.31317317 -0.08553154
0.31095928 0.070073955 0.18713322 0.22776641 -0.008730626 0.047157533 0.3862577 -0.116463475
0.32767802 -0.30232066 -0.048258837 0.2525801 0.11057133 -0.09450428 0.09400818 0.07671504
0.011615018 0.0029186942 -0.07412733 -0.11987961 -0.122087136 0.14557031 -0.07605354 0.16497877
0.006545383 0.064783394 0.23737854 -0.008673282 0.31638262 0.18972422 -0.13135827 0.19079639
-0.15256014 0.059300195 0.4121597 0.20684335 -0.042326346 -0.06231246 0.21425435 -0.03053491
-0.026001908 0.043483146 -0.056316786 0.13383874 0.24001046 0.08625999 -0.18809022 -0.010027844
0.32063654 0.31113103 0.06544329 -0.1305258 -0.055539355 0.1810885 0.21020076 -0.10787824
0.2862278 0.26832357 0.16812852 0.074517764 -0.12226591 -0.010115005 -0.20471023 0.0661129
0.15247299 -0.34097853 0.21003094 0.22989848 -0.1405962 -0.104180485 -0.26445708 -0.29156682
0.0909906 0.06763701 0.15795825 0.22716318 -0.058961634 0.27861664 0.13911621 -0.047529392
-0.31922483 0.049905382 0.29230326 -0.13855717 -0.15133046 0.17113014 -0.09432842 -0.32694253
0.21659087 0.22158161 -0.15195027 -0.02555006 0.31520826 -0.08030304 0.046023197 0.20067778
0.17146489 -0.11219763 0.0049405606 -0.2646439 0.17284262 -0.0402519 -0.22954749 0.3909336
0.092887886 0.25873777 0.044827126 -0.16977125 0.067628846 -0.17037499 -0.39737186 -0.28683573
0.35908866 -0.0729913 -0.08947068 -0.26927578 0.10838609 -0.09870519 -0.29706758 -0.09600759
-0.07717583 0.17706661 0.11015854 0.22287187 0.18518232 0.20352739 -0.17884365 0.102788754
00000000: 681f eb3d 8e95 80bd ecce 723d d572 6cbd
00000010: 5adb 10be 899e 2b3e b8d5 b2be 1a24 a3bc
00000020: 64ca 443e ec6f 85be 14d7 9e3e 2c68 62be
00000030: be28 203e 0133 703e 59e4 493e f4e3 10be
00000040: 38b4 f13c 1820 d0bd 7410 743e a762 56bd
00000050: e857 54be a324 393e 950b 71be 35e9 933d
00000060: ae20 9d3e 067c e53c 9283 90bd bc8d 79bd
00000070: f22a 923e e4c8 bf3d 266d bf3e 1c9f ae3d
00000080: c91b a4be b6b6 1dbe 39fd b8bc 5fb7 6bbe
00000090: c929 943e 87f4 773d 2a3c e5bc aeb8 57bd
000000a0: de97 7bbe 6eaa 5abe d528 93bd fa66 38be
000000b0: 9050 663e 43f8 69be 8d34 dc3d b4ba fa3d
000000c0: 352e 6fbd a07f 553e 3940 55be f3cc 13bc
000000d0: a8b7 853e c3c2 eabd 7b09 4abd 7574 b63d
000000e0: 2759 68bd 438e a43d 7b3c 52be fd68 553e
000000f0: d4b1 103e b750 093e 7276 18bd 7d25 4cbe
00000100: 76bc cbbd 2d4d a9bd b2db cb3c 9a33 94bd
00000110: 7c7b b03e ef07 333d 06c6 90bd b744 11be
00000120: a421 203d 4f79 463e 9cc6 413e aff5 583c
00000130: 970d 9dbe 9147 7cbd 5340 343e edf0 883e
00000140: 04cc 193e 113a 8d3e 9582 6d3e 81b1 fc3d
00000150: 6577 143e b8e9 2ebe 0d06 a03e 783e a7bd
00000160: a4c8 a3bc cf96 debe 1b4a fdbd dc44 023d
00000170: a1fc 66be a64a 2dbc eae4 023e f5fe bdbe
00000180: 6514 e4bd 973e 3e3e e789 a6be 3d3c 6d3d
00000190: fd76 49be d1bf 9ebe 82b4 5ebe dfcb bcbe
000001a0: 8fef 0ebe 07a2 993e a7fa 04bd 622f a6be
000001b0: 52fe 863d 3014 353b 1bdd 123e 39b5 03bd
000001c0: 0526 82be e24f 08be 71af 153e 6f8f 483c
000001d0: e6c8 a73b 474d fbbb 66be c9bd 0f52 c73d
000001e0: b68d 71be a267 51bd c3f3 39be 3951 8bbe
000001f0: 68a1 703e 8d6f c5bc 3c58 a03e 292b afbd
00000200: 0e36 9f3e ef82 8f3d da9f 3f3e 993b 693e
00000210: e60a 0fbc 4228 413d 92c3 c53e 6784 eebd
00000220: 6ac5 a73e c6c9 9abe 0fab 45bd 2e52 813e
00000230: 3973 e23d 768b c1bd 5c87 c03d c61c 9d3d
00000240: eb4c 3e3c 9047 3f3b 12d0 97bd 7183 f5bd
00000250: d208 fabd 6210 153e f5c1 9bbd 32f0 283e
00000260: a77a d63b 28ad 843d 5c13 733e 621a 0ebc
00000270: e7fc a13e 1147 423e c882 06be 2160 433e
00000280: ba38 1cbe c3e4 723d 9906 d33e bece 533e
00000290: 645e 2dbd 5a3b 7fbd 7e65 5b3e 5924 fabc
000002a0: f401 d5bc 621b 323d 6eac 66bd 060d 093e
000002b0: 4dc5 753e 14a9 b03d b99a 40be d44b 24bc
000002c0: 792a a43e 914c 9f3e 2207 863d 8ea8 05be
000002d0: 3c7d 63bd 446f 393e de3e 573e 44ef dcbd
000002e0: 738c 923e b561 893e e229 2c3e c59c 983d
000002f0: 8d66 fabd 68b9 25bc 8f9f 51be 3366 873d
00000300: e121 1c3e bd94 aebe 5a12 573e 826a 6b3e
00000310: 73f8 0fbe 945c d5bd eb66 87be 3f48 95be
00000320: 4859 ba3d 4685 8a3d cfbf 213e 779d 683e
00000330: c181 71bd d7a6 8e3e 7b74 0e3e 2eae 42bd
00000340: 7071 a3be 9669 4c3d c6a8 953e eee1 0dbe
00000350: 5ff6 1abe bd3c 2f3e 422f c1bd 0365 a7be
00000360: ffc9 5d3e 4ae6 623e da98 1bbe 5c4e d1bc
00000370: fa62 a13e ec75 a4bd d282 3c3d 7a7e 4d3e
00000380: 7e94 2f3e dfc7 e5bd 6de4 a13b 687f 87be
00000390: a8fd 303e 2ddf 24bd 7f0e 6bbe 7328 c83e
000003a0: 013c be3d 4779 843e a69c 373d 84d8 2dbe
000003b0: fe80 8a3d c876 2ebe 5374 cbbe 22dc 92be
000003c0: 78da b73e 767c 95bd 673c b7bd 84de 89be
000003d0: 87f9 dd3d f225 cabd 3e19 98be a19f c4bd
000003e0: 5d0e 9ebd f350 353e cd9a e13d 8638 643e
000003f0: 6fa0 3d3e 7c69 503e ca22 37be e982 d23d

arith.constant7 f4 [1, 3, 3, 16]
-0.00859314 0.13285196 0.0227948 0.011650669 -0.049526494 0.100126155 0.11500783 -0.0594398
-0.048914976 0.16799545 0.042404205 0.10159103 0.11545863 -0.0006738121 -0.16523035 0.17003433
-0.06156903 0.07708091 -0.02426416 -0.16018078 0.046983525 -0.0708662 0.001019791 -0.055952076
0.06980056 -0.07422996 -0.11489774 0.058364436 0.09128975 0.12216833 -0.15435086 0.15063205
0.095149286 0.15984651 0.22312777 -0.15668254 -0.26339203 0.1205167 0.056072008 -0.16879785
0.19941194 0.0027988828 0.079363056 -0.0077030156 0.06678616 0.030439934 -0.117061794 -0.026665356
-0.16555198 -0.009068268 0.033325944 0.08005448 0.06731283 0.047072317 0.20693074 0.021216653
0.09812055 0.06012836 -0.13498166 -0.17799369 -0.01398524 0.037631813 -0.02713931 0.15636964
0.08928031 0.038215257 0.15761344 -0.1395674 0.02389323 0.08971691 -0.10530242 -0.21515223
-0.018177832 0.14944124 -0.07290327 0.12435139 -0.07167284 0.13529083 -0.14846864 -0.031199805
0.15741019 0.022040913 -0.044780806 -0.14367034 0.11395897 0.05312742 0.085101336 -0.12159837
-0.0002161868 0.090645835 0.08704531 -0.17779191 0.020501453 0.0031575686 -0.23650886 -0.025517179
-0.1355011 -0.016138595 0.100516 -0.2423417 -0.05292164 -0.16350211 -0.093026645 -0.01497975
-0.14057106 0.13822271 0.15307774 0.009210106 0.053885855 -0.048500776 0.016928274 -0.04876003
0.13437036 0.012739846 0.12219733 -0.138963 0.16136128 -0.06466935 -0.07554255 -0.1313377
-0.093385935 0.18117888 0.042622004 -0.13119197 -0.16092026 0.11652671 -0.11586533 -0.12137158
-0.24958922 0.09430321 0.027581489 -0.09406329 -0.04864607 0.054753236 -0.07240341 -0.2105242
-0.103232734 0.15265292 -0.08065785 -0.080770336 -0.04799183 -0.15028167 -0.2400665 -0.33092567
00000000: 3eca 0cbc 580a 083e 29bc ba3c 73e2 3e3c
00000010: 4bdc 4abd f10e cd3d 3a89 eb3d 2677 73bd
00000020: 125b 48bd 0007 2c3e 08b0 2d3d f50e d03d
00000030: 9375 ec3d c4a2 30ba 2532 29be 7b1d 2e3e
00000040: cf2f 7cbd 99dc 9d3d a2c5 c6bc 6e06 24be
00000050: cc71 403d 4c22 91bd 82aa 853a 012e 65bd
00000060: 99f3 8e3d e105 98bd 824f ebbd 8c0f 6f3d
00000070: 1ff6 ba3d 6433 fa3d 270e 1ebe 4a3f 1a3e
00000080: a1dd c23d ceae 233e 9b7b 643e 6371 20be
00000090: 52db 86be 76d1 f63d c3ab 653d 58d9 2cbe
000000a0: a532 4c3e 766d 373b 1989 a23d 9469 fcbb
000000b0: 2fc7 883d 2b5d f93c 18be efbd 4e71 dabc
000000c0: 7586 29be 1393 14bc c980 083d 9af3 a33d
000000d0: 4fdb 893d e7ce 403d a7e5 533e 8cce ad3c
000000e0: 6df3 c83d 2849 763d a238 0abe fa43 36be
000000f0: 5922 65bc d123 1a3d 4253 debc 5d1f 203e
00000100: 98d8 b63d 9a87 1c3d 6b65 213e c2ea 0ebe
00000110: bcbb c33c 80bd b73d cca8 d7bd de50 5cbe
00000120: ade9 94bc 2007 193e 4f4e 95bd f1ab fe3d
00000130: 36c9 92bd ae89 0a3e 2a08 18be bc96 ffbc
00000140: 2330 213e 258f b43c 146c 37bd 511e 13be
00000150: 5263 e93d 239c 593d 9c49 ae3d 9108 f9bd
00000160: 34b0 62b9 86a4 b93d d044 b23d 150f 36be
00000170: aaf2 a73c 36ef 4e3b 612f 72be 6709 d1bc
00000180: cdc0 0abe 1635 84bc 55db cd3d 6c28 78be
00000190: 5dc4 58bd 196d 27be c184 bebd a06d 75bc
000001a0: dcf1 0fbe 418a 0d3e 69c0 1c3e fce5 163c
000001b0: 6ab7 5c3d c0a8 46bd 2aad 8a3c 99b8 47bd
000001c0: 6298 093e c9ba 503c 9842 fa3d 514c 0ebe
000001d0: e43b 253e 5d71 84bd 0db6 9abd 647d 06be
000001e0: 2041 bfbd f586 393e 6994 2e3d 3057 06be
000001f0: 48c8 24be 8ea5 ee3d cd4a edbd aa91 f8bd
00000200: 5194 7fbe 0b22 c13d 93f2 e13c 41a4 c0bd
00000210: 1a41 47bd ee44 603d 3d48 94bd a893 57be
00000220: af6b d3bd 0c51 1c3e f12f a5bd eb6a a5bd
00000230: 1593 44bd 70e3 19be fed3 75be 176f a9be

arith.constant8 f4 [5, 64]
0.45045266 0.628356 0.120355755 -0.025677213 -0.22983459 -0.20380966 -0.7612428 -0.34225136
-0.16696082 -0.20911928 -0.1235676 0.16065373 0.38132742 0.48011038 -0.18652172 0.18001407
-0.63078433 0.45168877 -0.2842478 -0.16004239 -0.3777149 0.38960922 -0.1229037 0.05323034
-0.22957794 -0.28423083 -0.5064836 -0.4052461 -0.08144304 0.31566048 -0.5456349 -0.3075819
-0.31447846 -0.2764661 -0.042634238 0.6645779 -0.81019634 0.18242842 -0.4669155 -0.3783682
-0.5177119 -0.46976978 -0.022196852 -0.6783907 0.008644186 -0.022915266 -0.7895195 -0.44133216
0.15341273 -0.26312235 0.09019745 0.4353323 0.36615497 0.034244493 -0.43763417 -0.40133458
0.35504782 -0.6583915 -0.45032787 -0.25873885 0.27329272 0.21788199 -0.42666808 -0.68509316
-0.26142392 0.017014964 -0.6502548 -0.5153386 0.18823722 0.12162644 0.19533905 -0.532463
0.056051906 -0.013006123 0.21058655 -0.39094397 -0.42833915 -0.3694197 0.32346082 -0.42264184
0.08763765 -0.5426937 -0.24515243 0.4589193 0.4098974 -0.5903797 -0.4645235 0.20465532
0.16665596 0.43869212 -0.2189615 0.49444485 -0.08250851 -0.39322978 0.15995833 0.08167205
-0.3783819 -0.056077916 0.43545434 -0.119787306 -0.23960333 0.32230863 0.10490086 0.07494436
0.5093653 0.3619983 -0.16090052 0.15332972 0.014214382 -0.13188611 -0.39852846 -0.21112318
-0.43189085 -0.23214003 -0.38456327 -0.29006296 -0.52938926 0.44461426 -0.05353119 0.3190251
-0.2839363 0.24205792 0.24944286 0.20763467 -0.11921083 0.06727113 -0.3424579 -0.16777615
0.10078299 -0.12459042 -0.13514218 -0.46873602 -0.2649189 0.49036637 -0.0801513 0.11108185
0.3441215 0.36420527 -0.43459287 -0.2184633 -0.30759734 0.12558265 -0.4865922 0.20327099
-0.1442352 0.13071541 -0.58366233 -0.44494873 -0.32421342 0.35087338 0.19523579 -0.40009758
0.43841937 -0.5340618 -0.11786929 -0.5188149 -0.31340745 -0.4132772 -0.2658547 0.34864902
0.27462903 -0.48137057 -0.4968768 -0.10384427 -0.0693457 0.3647531 0.2881884 0.456868
0.016503248 -0.35941395 -0.34018505 -0.08743971 0.35084254 -0.10000315 -0.4151384 0.2387661
0.24519087 -0.50299704 -0.40597 -0.06430735 -0.24245414 0.08126721 0.23574866 -0.07263882
0.03376985 -0.021439137 -0.60863715 0.4030283 -0.41711745 0.21050516 -0.18015496 -0.65913165
-0.4068284 -0.32868302 -0.62249666 0.23209126 -0.25474793 -0.34472802 0.18084702 -0.5189279
-0.29749563 -0.53586006 -0.37358043 0.39931974 0.16555795 -0.45479694 -0.46944204 -0.31538942
0.44207984 0.23315315 0.12788732 0.18221295 0.04549334 -0.5617707 -0.5530174 -0.48937643
-0.33846447 -0.103649475 0.66341513 -0.25369054 -0.30598804 0.36877295 0.79460543 -0.3232664
-0.39442104 -0.43740234 0.12564671 -0.11959814 0.59797066 0.03156832 -0.0944332 -0.59879935
-0.1600783 0.5862613 0.3414149 0.19197077 -0.013193074 -0.40631047 0.23853368 -0.002662805
-0.67070687 0.35064772 0.34376946 0.42005172 -0.41826576 -0.38835385 -0.50270796 -0.5879696
-0.68711007 0.6445093 0.091112696 -0.34040046 0.37257692 -0.25887206 -0.34519908 0.4370663
00000000: bba1 e63e f0db 203f 147d f63d 0559 d2bc
00000010: c259 6bbe 7bb3 50be cfe0 42bf 923b afbe
00000020: c7f7 2abe 5d23 56be 0311 fdbd 6982 243e
00000030: 593d c33e 07d1 f53e 8dff 3ebe 9c55 383e
00000040: 157b 21bf c043 e73e ed88 91be 27e2 23be
00000050: d963 c1be dc7a c73e efb4 fbbd 0f08 5a3d
00000060: 7b16 6bbe b486 91be e9a8 01bf 6b7c cfbe
00000070: 9ccb a6bd 409e a13e bbae 0bbf 607b 9dbe
00000080: 5203 a1be f78c 8dbe 3da1 2ebd c721 2a3f
00000090: 0769 4fbf 84ce 3a3e 8c0f efbe 7ab9 c1be
000000a0: c488 04bf aa85 f0be 2cd6 b5bc 03ab 2dbf
000000b0: 58a0 0d3c ccb8 bbbc f31d 4abf 4af6 e1be
000000c0: 3a18 1d3e f9b7 86be 71b9 b83d e0e3 de3e
000000d0: aa78 bb3e f443 0c3d 9611 e0be ba7b cdbe
000000e0: d4c8 b53e 588c 28bf 6091 e6be 6b79 84be
000000f0: 06ed 8b3e 751c 5f3e 3d74 dabe 4462 2fbf
00000100: 5bd9 85be f762 8b3c 1977 26bf 3bed 03bf
00000110: 42c1 403e 4817 f93d f606 483e 7f4f 08bf
00000120: af96 653d a217 55bc 00a4 573e cf29 c8be
00000130: 454f dbbe 9424 bdbe a89c a53e 8364 d8be
00000140: 5e7b b33d f9ed 0abf 3d09 7bbe 78f7 ea3e
00000150: 12de d13e 2023 17bf 06d6 edbe 2a91 513e
00000160: dca7 2a3e 419c e03e 7237 60be e027 fd3e
00000170: 39fa a8bd 6a55 c9be 1ecc 233e ad43 a73d
00000180: 46bb c1be f5b1 65bd dff3 de3e 0c53 f5bd
00000190: 935a 75be a305 a53e 43d6 d63d 6e7c 993d
000001a0: c465 023f d757 b93e 1bc3 24be 7702 1d3e
000001b0: 70e3 683c 270d 07be ec0b ccbe ad30 58be
000001c0: cc20 ddbe 1eb6 6dbe 7ae5 c4be 2283 94be
000001d0: 0e86 07bf 7ba4 e33e 8543 5bbd 4257 a33e
000001e0: 1960 91be 08de 773e f36d 7f3e 2f9e 543e
000001f0: cf24 f4bd 72c5 893d a456 afbe 83cd 2bbe
00000200: 5067 ce3d 4329 ffbd b662 0abe 2bfe efbe
00000210: 73a3 87be 4d11 fb3e 5d26 a4bd e27e e33d
00000220: b130 b03e 1d79 ba3e f582 debe d8b4 5fbe
00000230: 667d 9dbe bd98 003e 9d22 f9be 4526 503e
00000240: 64b2 13be 43da 053e e56a 15bf 52d0 e3be
00000250: 4dff a5be ada5 b33e e4eb 473e 97d9 ccbe
00000260: 8178 e03e 46b8 08bf 7465 f1bd 0ed1 04bf
00000270: f176 a0be 1299 d3be 1b1e 88be 2082 b23e
00000280: 2d9c 8c3e 3476 f6be a366 febe 4eac d4bd
00000290: 1e05 8ebd ebc0 ba3e 6e8d 933e 9aea e93e
000002a0: d231 873c 1b05 b8be bc2c aebe 9713 b3bd
000002b0: a2a1 b33e 74ce ccbd 058d d4be 1a7f 743e
000002c0: 5113 7b3e 6ac4 00bf 4ddb cfbe 92b3 83bd
000002d0: e645 78be 6c6f a63d 1968 713e a9c3 94bd
000002e0: 4152 0a3d 21a1 afbc a5cf 1bbf ba59 ce3e
000002f0: 6b90 d5be aa8e 573e 8b7a 38be dabc 28bf
00000300: d04b d0be 2449 a8be f15b 1fbf 55a9 6d3e
00000310: 526e 82be 3180 b0be f62f 393e 75d8 04bf
00000320: 5951 98be 202e 09bf ef45 bfbe a373 cc3e
00000330: 0688 293e 25db e8be b55a f0be b97a a1be
00000340: 4a58 e23e b3bf 6e3e e5f4 023e 0896 3a3e
00000350: 3957 3a3d 34d0 0fbf 8c92 0dbf 8c8f fabe
00000360: 374b adbe 2d46 d4bd 93d5 293f bae3 81be
00000370: 77aa 9cbe cfcf bc3e 436b 4b3f 2c83 a5be
00000380: 8ef1 c9be 33f3 dfbe 88a9 003e dfef f4bd
00000390: 9b14 193f c84d 013d 3266 c1bd ea4a 19bf
000003a0: 91eb 23be 3815 163f efcd ae3e fc93 443e
000003b0: c327 58bc ed07 d0be 2c42 743e 7482 2ebb
000003c0: 72b3 2bbf 1988 b33e 8d02 b03e 0511 d73e
000003d0: ee26 d6be 51d6 c6be 78b1 00bf 2d85 16bf
000003e0: 72e6 2fbf 90fe 243f 4b99 ba3d f848 aebe
000003f0: 67c2 be3e e18a 84be efbd b0be 27c7 df3e

arith.constant9 f4 [64, 64]
-0.20461597 -0.043906868 0.18331534 -0.09774213 0.04704178 0.24229003 -0.24587193 0.24820864
-0.2612573 0.011853449 -0.37797555 0.45443773 -0.45980817 -0.2932904 -0.18286332 0.05318536
-0.06670618 0.1436762 -0.22814165 -0.33427003 -0.19329458 -0.3443888 0.11142572 -0.13935427
-0.028059272 -0.40755144 0.09629616 -0.22414374 -0.3214411 0.016160231 -0.034263056 -0.038942393
0.03400229 -0.28529447 -0.28053293 -0.1710187 -0.22660278 -0.13958733 -0.29282728 -0.3386212
-0.09802717 -0.03915306 -0.49187574 -0.0960624 -0.40398395 -0.09746578 0.21555066 0.1129192
0.18712062 0.23339523 0.08541595 -0.43319228 -0.17320134 0.15767881 0.17337263 0.027690338
-0.06537974 0.29494888 -0.1387248 -0.13998747 -0.10524382 0.09925401 -0.2335648 0.19776918
-0.5024504 0.050596375 0.24072549 -0.2843999 -0.20411216 -0.15467641 -0.059761185 0.6599321
0.032354575 0.0099792 -0.4490581 -0.019736214 -0.25675294 -0.38250276 -0.1803531 0.12337455
-0.10757301 0.10265766 -0.30960447 -0.17696966 -0.12404873 -0.12370387 -0.11474959 -0.26733372
-0.4137922 -0.45830712 -0.02875682 -0.12015048 -0.16512907 0.33008435 0.41219187 0.22351138
0.39185128 -0.09781839 -0.32959068 -0.1805789 -0.020189285 0.070389524 0.47595328 -0.2711982
0.30129734 0.16736117 -0.68573105 0.030994102 -0.45392713 -0.05535583 0.09622106 -0.2799104
0.19253688 0.2308228 0.37434274 -0.32215554 -0.2733738 -0.036498085 -0.078571066 0.10183657
-0.22369756 0.1830487 -0.13532287 -0.23318863 -0.5423707 0.42495263 0.0041809604 0.59759617
-0.4140525 0.1317464 -0.16879566 -0.24970518 -0.043238577 0.12976047 -0.20990366 -0.02605646
-0.2387805 -0.24073234 -0.27617177 0.44091967 -0.117409356 0.025941674 -0.13503349 -0.13333263
0.07895892 0.2285217 -0.3192602 -0.09962337 0.08265193 -0.33341223 0.02209179 -0.2934909
0.069168314 -0.3458791 0.4471637 0.15136464 -0.10407988 -0.007175673 -0.35004404 -0.14886297
-0.15488663 -0.33816883 -0.1258008 -0.106250815 -0.3348925 0.0742528 -0.09647064 -0.33246237
0.2344881 -0.06378256 -0.02915635 -0.027021319 -0.060211074 -0.008093496 0.5318778 0.098662235
0.2945061 0.37566575 -0.12176279 -0.16663793 -0.23022862 0.21606037 0.03686016 -0.1390197
-0.112415224 0.17615995 -0.3475653 -0.31795835 -0.110115826 0.0045232223 -0.18808286 0.09385787
0.31967047 -0.38533548 -0.22677538 0.38379434 -0.099618584 0.076429754 -0.017310537 -0.3528762
0.33819827 -0.31399974 -0.21226758 -0.06615503 0.36629197 0.010121296 -0.0072648516 0.23940147
-0.14749224 -0.25993973 -0.09836236 0.11940783 0.018989798 0.32493028 0.018938432 -0.0613995
0.12326762 0.23557402 0.022117274 0.0759414 -0.31199068 -0.34106767 -0.25286514 0.467329
0.43491274 0.054896414 0.015866427 -0.0879667 -0.122029684 -0.34974965 0.17583743 -0.0037648447
-0.06687115 0.11069242 0.40539744 -0.12277621 0.019045115 -0.20840056 0.049569443 0.20285091
0.24371883 0.45055473 0.24454446 -0.014267622 -0.4895904 -0.008906396 -0.12504306 -0.29633936
-0.03347389 -0.33306015 -0.28368923 0.18170704 0.2676778 0.25566313 -0.15671504 -0.2761635
00000000: d986 51be b0d7 33bd 04b7 3b3e 072d c8bd
00000010: e2ae 403d e11a 783e dac5 7bbe 682a 7e3e
00000020: 84c3 85be f834 423c 0386 c1be 10ac e83e
00000030: fa6b ebbe 292a 96be 8640 3bbe e4d8 593d
00000040: 409d 88bd db1f 133e f79d 69be 7125 abbe
00000050: 04ef 45be bb53 b0be 2b33 e43d e3b2 0ebe
00000060: 8fdc e5bc 95aa d0be ec36 c53d f085 65be
00000070: ee93 a4be 7662 843c 6b57 0cbd 0f82 1fbd
00000080: fc45 0b3d 1e12 92be 03a2 8fbe 871f 2fbe
00000090: 8f0a 68be fbef 0ebe 75ed 95be c25f adbe
000000a0: 78c2 c8bd f65e 20bd 23d7 fbbe 5dbc c4bd
000000b0: fcd6 cebe 249c c7bd 50b9 5c3e 2e42 e73d
000000c0: 8c9c 3f3e 29ff 6e3e 8fee ae3d 61cb ddbe
000000d0: b15b 31be 8e76 213e 9888 313e d9d6 e23c
000000e0: d0e5 85bd 8a03 973e e00d 0ebe e058 0fbe
000000f0: 128a d7bd b045 cb3d 9c2b 6fbe 0184 4a3e
00000100: 97a0 00bf 253e 4f3d be80 763e dd9c 91be
00000110: c702 51be 7e63 1ebe 25c8 74bd 4ff1 283f
00000120: 3b86 043d cc7f 233c f1ea e5be d7ad a1bc
00000130: 1f75 83be 67d7 c3be 7cae 38be ccab fc3d
00000140: 3d4f dcbd 2e3e d23d 7a84 9ebe 8937 35be
00000150: 430d febd 7458 fdbd d501 ebbd f7df 88be
00000160: 92dc d3be 3ba7 eabe 6c93 ebbc 7411 f6bd
00000170: 9817 29be d100 a93e d00a d33e 2be0 643e
00000180: bba0 c83e 0255 c8bd 1cc0 a8be ade9 38be
00000190: 0064 a5bc 6228 903d 26b0 f33e 7eda 8abe
000001a0: a543 9a3e ba60 2b3e 128c 2fbf 58e7 fd3c
000001b0: 2369 e8be cbbc 62bd 8c0f c53d 6a50 8fbe
000001c0: 6328 453e d05c 6c3e daa9 bf3e 92f1 a4be
000001d0: a7f7 8bbe 047f 15bd dee9 a0bd b18f d03d
000001e0: f910 65be 1e71 3b3e 1492 0abe 00c9 6ebe
000001f0: ced8 0abf 6493 d93e 7000 893b 10fc 183f
00000200: b0fe d3be 87e8 063e c5d8 2cbe b7b2 7fbe
00000210: ef1a 31bd eedf 043e fcf0 56be 5b74 d5bc
00000220: e082 74be 8a82 76be 6366 8dbe 39c0 e13e
00000230: 5174 f0bd a283 d43c 3846 0abe 5988 08be
00000240: 37b5 a13d 9801 6a3e 1376 a3be 5607 ccbd
00000250: 6a45 a93d 02b5 aabe d7f9 b43c 7044 96be
00000260: 1ea8 8d3d 1117 b1be a4f2 e43e 55ff 1a3e
00000270: d527 d5bd e821 ebbb f938 b3be 896f 18be
00000280: 9a9a 1ebe 7724 adbe edd1 00be 079a d9bd
00000290: 0877 abbe da11 983d 6692 c5bd 8238 aabe
000002a0: a61d 703e 6ea0 82bd 4cd9 eebc d05b ddbc
000002b0: e39f 76bd 959a 04bc 2529 083f 6d0f ca3d
000002c0: 81c9 963e 4357 c03e c55e f9bd 22a3 2abe
000002d0: 0dc1 6bbe ee3e 5d3e aefa 163d 2e5b 0ebe
000002e0: f439 e6bd 4663 343e 14f4 b1be 70cb a2be
000002f0: 6884 e1bd 8a37 943b cb98 40be 8e38 c03d
00000300: d9ab a33e b14a c5be ce37 68be b180 c43e
00000310: d404 ccbd 3487 9c3d d4ce 8dbc 30ac b4be
00000320: 5328 ad3e 93c4 a0be ac5c 59be 4a7c 87bd
00000330: 9f8a bb3e cbd3 253c fe0d eebb a925 753e
00000340: 3508 17be d216 85be 3472 c9bd 188c f43d
00000350: 7e90 9b3c 435d a63e c524 9b3c 0b7e 7bbd
00000360: bc73 fc3d 513a 713e 492f b53c 2a87 9b3d
00000370: 3ebd 9fbe 6ca0 aebe 8a77 81be bf45 ef3e
00000380: e2ac de3e 10db 603d 4ffa 813c e327 b4bd
00000390: b3ea f9bd 6312 b3be ba0e 343e 9dbb 76bb
000003a0: bef3 88bd b5b2 e23d 4190 cf3e 1872 fbbd
000003b0: 8004 9c3c f566 55be 5409 4b3d 26b8 4f3e
000003c0: 6e91 793e 1caf e63e dd69 7a3e bec2 69bc
000003d0: 98ab fabe 22ec 11bc 4a0b 00be cbb9 97be
000003e0: eb1b 09bd dc86 aabe b73f 91be 6911 3a3e
000003f0: 110d 893e 47e6 823e e879 20be 4d65 8dbe

arith.constant10 f4 [64]
0.08310862 0.022877812 0.035910565 0.11368942 0.028644353 0.09856795 0.044430755 -0.024330571
0.10383269 0.03497563 0.009461223 0.10165629 0.08626896 0.13260074 0.10549825 0.08077107
0.11952703 0.1275176 0.09603731 0.061107863 0.065397814 0.15226956 0.07618992 0.07603116
0.06772981 0.09846348 0.065245874 0.05862123 -0.0017597476 0.10301855 0.08728299 0.11681075
0.03380253 0.108577326 0.04876557 0.04458525 0.09155175 0.115913056 0.09278525 0.09476677
0.12311376 0.10360394 0.104319766 0.14002915 0.0373069 -0.044372566 0.06583058 0.04652579
0.120400995 0.058021363 0.07301998 0.08229879 0.06394524 0.13288637 0.09399951 0.090584904
0.099755175 0.12768126 0.06559401 0.10745935 0.12239303 0.1064672 -0.0015686651 0.12623549
00000000: da34 aa3d 406a bb3c f516 133d 00d6 e83d
00000010: 90a7 ea3c fedd c93d 06fd 353d e850 c7bc
00000020: 3ca6 d43d 9b42 0f3d 3f03 1b3c 2c31 d03d
00000030: c8ad b03d 7dc8 073e 770f d83d 4e6b a53d
00000040: 96ca f43d f993 023e 36af c43d 3d4c 7a3d
00000050: 4aef 853d 8dec 1b3e 7609 9c3d 3ab6 9b3d
00000060: edb5 8a3d 39a7 c93d a19f 853d d11c 703d
00000070: 55a7 e6ba 64fb d23d 6dc1 b23d 793a ef3d
00000080: 8674 0a3d ca5d de3d 68be 473d 069f 363d
00000090: 7c7f bb3d d363 ed3d 3106 be3d 1515 c23d
000000a0: 1123 fc3d 4d2e d43d 9aa5 d53d cd63 0f3e
000000b0: 1fcf 183d 02c0 35bd 2fd2 863d d491 3e3d
000000c0: cc94 f63d cfa7 6d3d 808b 953d 458c a83d
000000d0: b9f5 823d 5d13 083e d182 c03d 9484 b93d
000000e0: 714c cc3d e0be 023e 2756 863d a613 dc3d
000000f0: 32a9 fa3d 7a0b da3d ab9b cdba e043 013e

arith.constant11 f4 [5]
0.0043966547 -0.050214928 0.042248484 0.023267895 -0.011564457
00000000: d011 903b 2bae 4dbd bf0c 2d3d 509c be3c
00000010: d978 3dbc

sequential_1/batch_normalization_1_2/batchnorm/mul f4 [32]
21.998749 8.6282 22.6263 18.408218 7.0534096 21.437624 13.446636 22.873856
19.156635 15.034789 3.742 5.8279524 16.965689 3.708543 16.9234 11.710528
14.021178 17.445732 21.32362 16.162945 5.3775163 8.605817 6.787987 12.379048
11.899796 22.5348 16.25267 24.090385 8.333459 21.8188 13.1736 11.93171
00000000: 70fd af41 1b0d 0a41 aa02 b541 0844 9341
00000010: 88b5 e140 4180 ab41 6c25 5741 a8fd b641
00000020: ca40 9941 7f8e 7041 ee7c 6f40 967e ba40
00000030: bbb9 8741 c558 6d40 2063 8741 535e 3b41
00000040: bf56 6041 dc90 8b41 c696 aa41 b64d 8141
00000050: 9d14 ac40 6db1 0941 3137 d940 9510 4641
00000060: 9065 3e41 4547 b441 7805 8241 1cb9 c041
00000070: d955 0541 e78c ae41 11c7 5241 49e8 3e41

sequential_1/batch_normalization_1_2/batchnorm/sub f4 [32]
-1.0941577 -1.781418 -0.078294404 -1.3672026 -0.38149738 -0.2754868 -0.28860798 -2.6817079
-0.13232695 -0.12261366 -0.52627647 -0.4897479 -0.23392391 -0.54335165 -0.4213301 -0.382622
-0.32919905 -1.9349476 -1.8676404 -0.17923713 -0.43085957 -0.3256092 -0.3959435 -0.30640686
-0.15870264 -0.31092393 -0.1895863 -2.3534398 -1.2538831 -0.18519485 -1.7737452 -2.2668529
00000000: 5c0d 8cbf 8105 e4bf d158 a0bd 7f00 afbf
00000010: a053 c3be 9b0c 8dbe 6dc4 93be 1aa1 2bc0
00000020: b780 07be df1c fbbd 0eba 06bf 3dc0 fabe
00000030: c089 6fbe 1819 0bbf 94b8 d7be 08e7 c3be
00000040: c78c a8be 5dac f7bf d70e efbf f089 37be
00000050: a099 dcbe 40b6 a6be 1bb9 cabe 5ce1 9cbe
00000060: f282 22be 6c31 9fbe e922 42be c29e 16c0
00000070: 3e7f a0bf b8a3 3dbe 150a e3bf 1e14 11c0

sequential_1/batch_normalization_1/batchnorm/mul f4 [16]
30.90592 20.868328 2.6775827 27.266138 20.552069 19.238274 31.275055 11.944717
23.565342 17.790224 21.233286 29.67807 23.57898 32.028778 26.846025 12.626975
00000000: 533f f741 56f2 a641 845d 2b40 0d21 da41
00000010: a36a a441 fce7 9941 5033 fa41 901d 3f41
00000020: d285 bc41 6152 8e41 c5dd a941 b06c ed41
00000030: c0a1 bc41 781d 0042 a9c4 d641 1708 4a41

sequential_1/batch_normalization_1/batchnorm/sub f4 [16]
0.009157609 -0.33781967 -0.45296526 -0.07633078 -2.5822306 -1.1832886 -0.018656923 -0.41266492
-0.16449513 -0.76862144 -0.9985548 -0.009334095 -0.59154385 -0.01919994 -0.19638784 -0.8267412
00000000: cc09 163c b3f6 acbe 10eb e7be 5053 9cbd
00000010: 4443 25c0 0076 97bf 67d6 98bc d148 d3be
00000020: 6971 28be 60c4 44bf 4aa1 7fbf 08ee 18bc
00000030: 6b6f 17bf 3149 9dbc e519 49be 50a5 53bf

sequential_1/batch_normalization_2_1/batchnorm/mul f4 [64]
7.0964203 16.455118 13.214567 4.6895046 5.012626 24.172138 7.8343844 13.757627
16.126692 31.477749 6.153763 7.767931 5.9148774 8.755884 3.9870944 20.585901
13.772458 8.752511 5.857723 4.381448 13.133967 5.4242797 30.075272 3.6109567
5.416326 7.548026 18.798494 11.501543 3.830847 13.352934 20.259651 21.176546
15.693986 9.83766 4.859266 7.108013 9.981976 9.49301 21.448748 9.157261
11.718203 10.038643 7.093065 11.700384 4.253708 4.0044584 7.6098022 6.972838
6.5523314 31.925146 31.275642 5.283318 22.062145 10.608401 14.827741 24.82778
10.023347 19.142372 1.8574184 4.18056 6.693224 12.387471 31.229403 10.102118
00000000: e015 e340 15a4 8341 de6e 5341 6c10 9640
00000010: 6f67 a040 8a60 c141 47b3 fa40 3d1f 5c41
00000020: 7703 8141 6ed2 fb41 a0eb c440 e492 f840
00000030: ad46 bd40 1a18 0c41 8e2c 7f40 edaf a441
00000040: fd5b 5c41 490a 0c41 7872 bb40 d234 8c40
00000050: bb24 5241 b393 ad40 289a f041 ea19 6740
00000060: 8b52 ad40 6e89 f140 5163 9641 5206 3841
00000070: 992c 7540 9ea5 5541 c413 a241 9169 a941
00000080: 911a 7b41 0e67 1d41 1b7f 9b40 d874 e340
00000090: 2cb6 1f41 5ee3 1741 0997 ab41 2484 1241
000000a0: c27d 3b41 489e 2041 63fa e240 c634 3b41
000000b0: 601e 8840 8624 8040 8083 f340 7d21 df40
000000c0: b3ac d140 b366 ff41 8434 fa41 f110 a940
000000d0: 467f b041 03bc 2941 6d3e 6d41 4b9f c641
000000e0: a15f 2041 9423 9941 e3bf ed3f 26c7 8540
000000f0: e42e d640 1533 4641 d1d5 f941 46a2 2141

sequential_1/batch_normalization_2_1/batchnorm/sub f4 [64]
-1.8924028 -0.35710657 -0.47982204 -1.3422298 -0.62953705 -0.12628797 -0.3155144 -3.9500499
-0.2001275 -0.16248673 -2.2036889 -2.7128594 -1.2828294 -3.6228218 -0.63602155 -0.3675126
-0.7257817 -2.947486 -1.4783756 -2.649389 -1.7798301 -0.6397765 -0.12428243 -0.6449177
-2.8099983 -3.3618076 -2.4203 -5.654019 -0.68017346 -0.37895343 -0.32098112 -0.13654608
-4.9475694 -2.8800883 -2.2702339 -0.78195757 -3.1202192 -2.367224 -0.22144759 -2.1712594
-1.885788 -0.46469253 -3.0876577 -0.3727874 -2.0394275 -0.5447298 -2.8912528 -3.7230995
-2.6978106 -1.7288039 -0.094448276 -2.3823466 -0.21318819 -3.4564683 -2.2118213 -1.1831831
-1.260435 -2.9123816 -0.66636145 -1.8159459 -2.7524743 -0.17663726 -0.8396626 -3.2824574
00000000: 413a f2bf acd6 b6be 3cab f5be 30ce abbf
00000010: 5729 21bf a251 01be 1a8b a1be 9ecd 7cc0
00000020: 39ee 4cbe ec62 26be 3d09 0dc0 7d9f 2dc0
00000030: c133 a4bf 50dc 67c0 4fd2 22bf 9d2a bcbe
00000040: d4cc 39bf 9ca3 3cc0 693b bdbf 978f 29c0
00000050: 79d1 e3bf 65c8 23bf c987 febd 5419 25bf
00000060: 03d7 33c0 db27 57c0 32e6 1ac0 b9ed b4c0
00000070: d91f 2ebf 2f06 c2be a357 a4be bcd2 0bbe
00000080: 7d52 9ec0 5e53 38c0 834b 11c0 5f2e 48bf
00000090: acb1 47c0 9980 17c0 28c3 62be eaf5 0ac0
000000a0: 8061 f1bf 2eec edbe 2f9c 45c0 fddd bebe
000000b0: fb85 02c0 6a73 0bbf 490a 39c0 4347 6ec0
000000c0: eea8 2cc0 7249 ddbf 196e c1bd 5e78 18c0
000000d0: 014e 5abe c736 5dc0 7b8e 0dc0 8b72 97bf
000000e0: ef55 a1bf 7664 3ac0 aa96 2abf ea70 e8bf
000000f0: 8a28 30c0 66e0 34be 21f4 56bf c813 52c0
